> Seed: 6666666
> device: cuda:0
> Loading DataSet from data/cora/
> Data sent to cuda:0
> view: citing
> num_nodes: 2708, num_edges: [5429]
> num_feats: 1433, num_classes: 7
> num_samples: training = 270, validation = 812, test = 1626
> train_set_imbalance: {0: 28, 1: 35, 2: 79, 3: 50, 4: 22, 5: 20, 6: 36}
> Initializing the Training Model: GaAN
> Model Structure:
GaAN(
  (proj_fc): Linear(in_features=1433, out_features=128, bias=False)
  (embed_fc): Linear(in_features=128, out_features=128, bias=False)
  (layers): ModuleList(
    (0): ModuleList(
      (0): MultiHeadCGaANLayer(
        (cGaANs): ModuleList(
          (0): CGaANLayer(
            (Wa): Linear(in_features=128, out_features=128, bias=False)
            (att_out_fc_l): Linear(in_features=128, out_features=1, bias=False)
            (att_out_fc_r): Linear(in_features=128, out_features=1, bias=False)
            (gate_fc_l): Linear(in_features=128, out_features=1, bias=False)
            (gate_fc_m): Linear(in_features=128, out_features=1, bias=False)
            (gate_fc_r): Linear(in_features=128, out_features=1, bias=False)
            (Wgm): Linear(in_features=128, out_features=128, bias=False)
          )
          (1): CGaANLayer(
            (Wa): Linear(in_features=128, out_features=128, bias=False)
            (att_out_fc_l): Linear(in_features=128, out_features=1, bias=False)
            (att_out_fc_r): Linear(in_features=128, out_features=1, bias=False)
            (gate_fc_l): Linear(in_features=128, out_features=1, bias=False)
            (gate_fc_m): Linear(in_features=128, out_features=1, bias=False)
            (gate_fc_r): Linear(in_features=128, out_features=1, bias=False)
            (Wgm): Linear(in_features=128, out_features=128, bias=False)
          )
          (2): CGaANLayer(
            (Wa): Linear(in_features=128, out_features=128, bias=False)
            (att_out_fc_l): Linear(in_features=128, out_features=1, bias=False)
            (att_out_fc_r): Linear(in_features=128, out_features=1, bias=False)
            (gate_fc_l): Linear(in_features=128, out_features=1, bias=False)
            (gate_fc_m): Linear(in_features=128, out_features=1, bias=False)
            (gate_fc_r): Linear(in_features=128, out_features=1, bias=False)
            (Wgm): Linear(in_features=128, out_features=128, bias=False)
          )
        )
      )
      (1): MultiHeadCGaANLayer(
        (cGaANs): ModuleList(
          (0): CGaANLayer(
            (Wa): Linear(in_features=128, out_features=128, bias=False)
            (att_out_fc_l): Linear(in_features=128, out_features=1, bias=False)
            (att_out_fc_r): Linear(in_features=128, out_features=1, bias=False)
            (gate_fc_l): Linear(in_features=128, out_features=1, bias=False)
            (gate_fc_m): Linear(in_features=128, out_features=1, bias=False)
            (gate_fc_r): Linear(in_features=128, out_features=1, bias=False)
            (Wgm): Linear(in_features=128, out_features=128, bias=False)
          )
          (1): CGaANLayer(
            (Wa): Linear(in_features=128, out_features=128, bias=False)
            (att_out_fc_l): Linear(in_features=128, out_features=1, bias=False)
            (att_out_fc_r): Linear(in_features=128, out_features=1, bias=False)
            (gate_fc_l): Linear(in_features=128, out_features=1, bias=False)
            (gate_fc_m): Linear(in_features=128, out_features=1, bias=False)
            (gate_fc_r): Linear(in_features=128, out_features=1, bias=False)
            (Wgm): Linear(in_features=128, out_features=128, bias=False)
          )
          (2): CGaANLayer(
            (Wa): Linear(in_features=128, out_features=128, bias=False)
            (att_out_fc_l): Linear(in_features=128, out_features=1, bias=False)
            (att_out_fc_r): Linear(in_features=128, out_features=1, bias=False)
            (gate_fc_l): Linear(in_features=128, out_features=1, bias=False)
            (gate_fc_m): Linear(in_features=128, out_features=1, bias=False)
            (gate_fc_r): Linear(in_features=128, out_features=1, bias=False)
            (Wgm): Linear(in_features=128, out_features=128, bias=False)
          )
        )
      )
    )
  )
  (tran_fc): Linear(in_features=512, out_features=7, bias=True)
)
> Model sent to cuda:0
> Constructing the Optimizer: ADAM
> Using CrossEntropyLoss as the Loss Function.

learning_rate = 0.01, epochs = 75
eval_freq = 5, optimizer = ADAM

Start Training!
------------------------------------------------------------------------
Training Round 1: loss = 2.209271, time_cost = 1.5374 sec, acc = 17.0370%
Training Round 2: loss = 1.383754, time_cost = 0.0837 sec, acc = 48.8889%
…
