> Seed: 6666666
> device: cuda:0
> Loading DataSet from data/cora/
> Data sent to cuda:0
> view: both
> num_nodes: 2708, num_edges: [10556]
> num_feats: 1433, num_classes: 7
> num_samples: training = 140, validation = 500, test = 1000
> train_set_imbalance: {0: 20, 1: 20, 2: 20, 3: 20, 4: 20, 5: 20, 6: 20}
> Initializing the Training Model: GAT
> Model Structure:
GAT(
  (proj_fc): Linear(in_features=1433, out_features=128, bias=False)
  (embed_fc): Linear(in_features=128, out_features=128, bias=False)
  (layers): ModuleList(
    (0): ModuleList(
      (0): MultiHeadCGaANLayer(
        (cGaANs): ModuleList(
          (0): CGaANLayer(
            (Wa): Linear(in_features=128, out_features=128, bias=False)
            (att_out_fc_l): Linear(in_features=128, out_features=1, bias=False)
            (att_out_fc_r): Linear(in_features=128, out_features=1, bias=False)
          )
          (1): CGaANLayer(
            (Wa): Linear(in_features=128, out_features=128, bias=False)
            (att_out_fc_l): Linear(in_features=128, out_features=1, bias=False)
            (att_out_fc_r): Linear(in_features=128, out_features=1, bias=False)
          )
          (2): CGaANLayer(
            (Wa): Linear(in_features=128, out_features=128, bias=False)
            (att_out_fc_l): Linear(in_features=128, out_features=1, bias=False)
            (att_out_fc_r): Linear(in_features=128, out_features=1, bias=False)
          )
        )
      )
      (1): MultiHeadCGaANLayer(
        (cGaANs): ModuleList(
          (0): CGaANLayer(
            (Wa): Linear(in_features=128, out_features=128, bias=False)
            (att_out_fc_l): Linear(in_features=128, out_features=1, bias=False)
            (att_out_fc_r): Linear(in_features=128, out_features=1, bias=False)
          )
          (1): CGaANLayer(
            (Wa): Linear(in_features=128, out_features=128, bias=False)
            (att_out_fc_l): Linear(in_features=128, out_features=1, bias=False)
            (att_out_fc_r): Linear(in_features=128, out_features=1, bias=False)
          )
          (2): CGaANLayer(
            (Wa): Linear(in_features=128, out_features=128, bias=False)
            (att_out_fc_l): Linear(in_features=128, out_features=1, bias=False)
            (att_out_fc_r): Linear(in_features=128, out_features=1, bias=False)
          )
        )
      )
    )
  )
  (tran_fc): Linear(in_features=512, out_features=7, bias=True)
)
> Model sent to cuda:0
> Constructing the Optimizer: ADAM
> Using CrossEntropyLoss as the Loss Function.

learning_rate = 0.01, epochs = 75
eval_freq = 5, optimizer = ADAM

Start Training!
------------------------------------------------------------------------
Training Round 1: loss = 2.579023, time_cost = 1.7899 sec, acc = 14.2857%
Training Round 2: loss = 1.662899, time_cost = 0.2702 sec, acc = 51.4286%
…
